onnx/DeepSeek-R1_mla.onnx (onnx, 111419 bytes, 1 tensors)

add_43 f4 [32]
1.0 0.7498942 0.56234133 0.4216965 0.31622776 0.23713736 0.17782794 0.13335215
0.1 0.074989416 0.05623413 0.039006926 0.02687936 0.018378144 0.012447956 0.008334509
0.0055000004 0.0035619973 0.0022493652 0.0013705135 0.0007905694 0.0004149904 0.00017782794 3.3338034e-05
2.5e-05 1.8747354e-05 1.40585325e-05 1.0542412e-05 7.9056945e-06 5.9284343e-06 4.4456983e-06 3.3338035e-06
00000000: 0000 803f 11f9 3f3f 9af5 0f3f 9be8 d73e
00000010: 9be8 a13e 23d4 723e 8718 363e 778d 083e
00000020: cdcc cc3d 0d94 993d c255 663d bac5 1f3d
00000030: 1b32 dc3c c38d 963c 83f2 4b3c 778d 083c
00000040: 5939 b43b 6670 693b 166a 133b cda2 b33a
00000050: 373e 4f3a 1293 d939 5377 3a39 71d4 0b38
00000060: 17b7 d137 a343 9d37 f0dc 6b37 51df 3037
00000070: b3a2 0437 ddec c636 422c 9536 4fba 5f36
